…
-rw-rw----+ 1 avroy delta_bbhj  19K May 13 01:18 train.py
-rw-rw----+ 1 avroy delta_bbhj  13K May  5 09:36 UQPFIN.py
job is starting on gpua097.delta.ncsa.illinois.edu
# conda environments:
#
base                     /sw/external/python/anaconda3
toptagger_env         *  /u/avroy/.conda/envs/toptagger_env

/sw/external/python/anaconda3_gpu/bin/python
==========================================================================================
Layer (type:depth-idx)                   Output Shape              Param #
==========================================================================================
UQPFIN                                   [1, 10]                   --
├─Sequential: 1-1                        [60, 256]                 --
│    └─Sequential: 2-1                   [60, 100]                 --
│    │    └─Linear: 3-1                  [60, 100]                 1,200
│    │    └─ReLU: 3-2                    [60, 100]                 --
│    └─Sequential: 2-2                   [60, 100]                 --
│    │    └─Linear: 3-3                  [60, 100]                 10,100
│    │    └─ReLU: 3-4                    [60, 100]                 --
│    └─Sequential: 2-3                   [60, 100]                 --
│    │    └─Linear: 3-5                  [60, 100]                 10,100
│    │    └─ReLU: 3-6                    [60, 100]                 --
│    └─Sequential: 2-4                   [60, 256]                 --
│    │    └─Linear: 3-7                  [60, 256]                 25,856
│    │    └─ReLU: 3-8                    [60, 256]                 --
├─Sequential: 1-2                        [1770, 256]               --
│    └─Sequential: 2-5                   [1770, 512]               --
│    │    └─Linear: 3-9                  [1770, 512]               2,560
│    │    └─ReLU: 3-10                   [1770, 512]               --
│    └─Sequential: 2-6                   [1770, 512]               --
│    │    └─Linear: 3-11                 [1770, 512]               262,656
│    │    └─ReLU: 3-12                   [1770, 512]               --
│    └─Sequential: 2-7                   [1770, 256]               --
│    │    └─Linear: 3-13                 [1770, 256]               131,328
│    │    └─ReLU: 3-14                   [1770, 256]               --
├─Sequential: 1-3                        [60, 256]                 --
│    └─Sequential: 2-8                   [60, 512]                 --
│    │    └─Linear: 3-15                 [60, 512]                 137,216
│    │    └─ReLU: 3-16                   [60, 512]                 --
│    └─Sequential: 2-9                   [60, 512]                 --
│    │    └─Linear: 3-17                 [60, 512]                 262,656
│    │    └─ReLU: 3-18                   [60, 512]                 --
│    └─Sequential: 2-10                  [60, 256]                 --
│    │    └─Linear: 3-19                 [60, 256]                 131,328
│    │    └─ReLU: 3-20                   [60, 256]                 --
├─Sequential: 1-4                        [1, 10]                   --
│    └─Sequential: 2-11                  [1, 256]                  --
│    │    └─Linear: 3-21                 [1, 256]                  65,792
│    │    └─ReLU: 3-22                   [1, 256]                  --
│    └─Sequential: 2-12                  [1, 100]                  --
│    │    └─Linear: 3-23                 [1, 100]                  25,700
│    │    └─ReLU: 3-24                   [1, 100]                  --
│    └─Sequential: 2-13                  [1, 100]                  --
│    │    └─Linear: 3-25                 [1, 100]                  10,100
│    │    └─ReLU: 3-26                   [1, 100]                  --
│    └─Sequential: 2-14                  [1, 100]                  --
│    │    └─Linear: 3-27                 [1, 100]                  10,100
│    │    └─ReLU: 3-28                   [1, 100]                  --
│    └─Linear: 2-15                      [1, 10]                   1,010
│    └─Softmax: 2-16                     [1, 10]                   --
==========================================================================================
Total params: 1,087,702
Trainable params: 1,087,702
Non-trainable params: 0
Total mult-adds (M): 736.70
==========================================================================================
Input size (MB): 0.00
Forward/backward pass size (MB): 19.01
Params size (MB): 4.35
Estimated Total Size (MB): 23.36
…
