…
-rw-rw----+ 1 avroy delta_bbhj  19K May 13 01:18 train.py
-rw-rw----+ 1 avroy delta_bbhj  13K May  5 09:36 UQPFIN.py
job is starting on gpua050.delta.ncsa.illinois.edu
# conda environments:
#
base                     /sw/external/python/anaconda3
toptagger_env         *  /u/avroy/.conda/envs/toptagger_env

/sw/external/python/anaconda3_gpu/bin/python
==========================================================================================
Layer (type:depth-idx)                   Output Shape              Param #
==========================================================================================
UQPFIN                                   [1, 10]                   --
├─Sequential: 1-1                        [60, 128]                 --
│    └─Sequential: 2-1                   [60, 100]                 --
│    │    └─Linear: 3-1                  [60, 100]                 1,200
│    │    └─ReLU: 3-2                    [60, 100]                 --
│    └─Sequential: 2-2                   [60, 100]                 --
│    │    └─Linear: 3-3                  [60, 100]                 10,100
│    │    └─ReLU: 3-4                    [60, 100]                 --
│    └─Sequential: 2-3                   [60, 100]                 --
│    │    └─Linear: 3-5                  [60, 100]                 10,100
│    │    └─ReLU: 3-6                    [60, 100]                 --
│    └─Sequential: 2-4                   [60, 100]                 --
│    │    └─Linear: 3-7                  [60, 100]                 10,100
│    │    └─ReLU: 3-8                    [60, 100]                 --
│    └─Sequential: 2-5                   [60, 128]                 --
│    │    └─Linear: 3-9                  [60, 128]                 12,928
│    │    └─ReLU: 3-10                   [60, 128]                 --
├─Sequential: 1-2                        [1770, 128]               --
│    └─Sequential: 2-6                   [1770, 256]               --
│    │    └─Linear: 3-11                 [1770, 256]               1,280
│    │    └─ReLU: 3-12                   [1770, 256]               --
│    └─Sequential: 2-7                   [1770, 256]               --
│    │    └─Linear: 3-13                 [1770, 256]               65,792
│    │    └─ReLU: 3-14                   [1770, 256]               --
│    └─Sequential: 2-8                   [1770, 128]               --
│    │    └─Linear: 3-15                 [1770, 128]               32,896
│    │    └─ReLU: 3-16                   [1770, 128]               --
├─Sequential: 1-3                        [60, 128]                 --
│    └─Sequential: 2-9                   [60, 256]                 --
│    │    └─Linear: 3-17                 [60, 256]                 35,840
│    │    └─ReLU: 3-18                   [60, 256]                 --
│    └─Sequential: 2-10                  [60, 256]                 --
│    │    └─Linear: 3-19                 [60, 256]                 65,792
│    │    └─ReLU: 3-20                   [60, 256]                 --
│    └─Sequential: 2-11                  [60, 128]                 --
│    │    └─Linear: 3-21                 [60, 128]                 32,896
│    │    └─ReLU: 3-22                   [60, 128]                 --
├─Sequential: 1-4                        [1, 10]                   --
│    └─Sequential: 2-12                  [1, 128]                  --
│    │    └─Linear: 3-23                 [1, 128]                  16,512
│    │    └─ReLU: 3-24                   [1, 128]                  --
│    └─Sequential: 2-13                  [1, 100]                  --
│    │    └─Linear: 3-25                 [1, 100]                  12,900
│    │    └─ReLU: 3-26                   [1, 100]                  --
│    └─Sequential: 2-14                  [1, 100]                  --
│    │    └─Linear: 3-27                 [1, 100]                  10,100
│    │    └─ReLU: 3-28                   [1, 100]                  --
│    └─Sequential: 2-15                  [1, 100]                  --
│    │    └─Linear: 3-29                 [1, 100]                  10,100
│    │    └─ReLU: 3-30                   [1, 100]                  --
│    └─Sequential: 2-16                  [1, 100]                  --
│    │    └─Linear: 3-31                 [1, 100]                  10,100
│    │    └─ReLU: 3-32                   [1, 100]                  --
│    └─Linear: 2-17                      [1, 10]                   1,010
│    └─Softmax: 2-18                     [1, 10]                   --
==========================================================================================
Total params: 339,646
Trainable params: 339,646
Non-trainable params: 0
Total mult-adds (M): 187.74
==========================================================================================
Input size (MB): 0.00
Forward/backward pass size (MB): 9.63
Params size (MB): 1.36
Estimated Total Size (MB): 10.99
==========================================================================================
…
